+----------------------------------------------+----------------------+----------------+------------+
| Layer                                        | Input Shape          | Output Shape   | #Param     |
|----------------------------------------------+----------------------+----------------+------------|
| TextEncoder                                  | [32, 128], [32, 128] | [32, 312]      | 12,260,280 |
| ├─(bert)BertModel                            | [32, 128]            |                | 12,260,280 |
| │    └─(embeddings)BertEmbeddings            |                      | [32, 128, 312] | 9,861,072  |
| │    │    └─(word_embeddings)Embedding       | [32, 128]            | [32, 128, 312] | 9,700,080  |
| │    │    └─(position_embeddings)Embedding   | [1, 128]             | [1, 128, 312]  | 159,744    |
| │    │    └─(token_type_embeddings)Embedding | [32, 128]            | [32, 128, 312] | 624        |
| │    │    └─(LayerNorm)LayerNorm             | [32, 128, 312]       | [32, 128, 312] | 624        |
| │    │    └─(dropout)Dropout                 | [32, 128, 312]       | [32, 128, 312] | --         |
| │    └─(encoder)BertEncoder                  | [32, 128, 312]       |                | 2,301,552  |
| │    │    └─(layer)ModuleList                | --                   | --             | 2,301,552  |
| │    └─(pooler)BertPooler                    | [32, 128, 312]       | [32, 312]      | 97,656     |
| │    │    └─(dense)Linear                    | [32, 312]            | [32, 312]      | 97,656     |
| │    │    └─(activation)Tanh                 | [32, 312]            | [32, 312]      | --         |
+----------------------------------------------+----------------------+----------------+------------+