+--------------------+-------------------------+----------------+------------+
| Layer              | Input Shape             | Output Shape   | #Param     |
|--------------------+-------------------------+----------------+------------|
| GATPerso           | [2000, 2000]            | [1, 768]       | 23,566,080 |
| ├─(relu)LeakyReLU  | [2000, 8192]            | [2000, 8192]   | --         |
| ├─(fc1)Linear      | [1, 1024]               | [1, 1024]      | 1,049,600  |
| ├─(conv1)GATv2Conv | [2000, 300], [2, 2000]  | [2000, 8192]   | 4,947,968  |
| ├─(conv2)GATv2Conv | [2000, 8192], [2, 2000] | [2000, 1024]   | 16,781,312 |
| ├─(fc2)Linear      | [1, 1024]               | [1, 768]       | 787,200    |
+--------------------+-------------------------+----------------+------------+