+----------------------------------------------+----------------------+----------------+------------+
| Layer                                        | Input Shape          | Output Shape   | #Param     |
|----------------------------------------------+----------------------+----------------+------------|
| TextEncoder                                  | [16, 128], [16, 128] | [16, 768]      | 49,598,976 |
| ├─(bert)RobertaModel                         | [16, 128]            |                | 49,598,976 |
| │    └─(embeddings)RobertaEmbeddings         |                      | [16, 128, 768] | 6,481,152  |
| │    │    └─(word_embeddings)Embedding       | [16, 128]            | [16, 128, 768] | 6,085,632  |
| │    │    └─(position_embeddings)Embedding   | [16, 128]            | [16, 128, 768] | 393,216    |
| │    │    └─(token_type_embeddings)Embedding | [16, 128]            | [16, 128, 768] | 768        |
| │    │    └─(LayerNorm)LayerNorm             | [16, 128, 768]       | [16, 128, 768] | 1,536      |
| │    │    └─(dropout)Dropout                 | [16, 128, 768]       | [16, 128, 768] | --         |
| │    └─(encoder)RobertaEncoder               | [16, 128, 768]       |                | 42,527,232 |
| │    │    └─(layer)ModuleList                | --                   | --             | 42,527,232 |
| │    └─(pooler)RobertaPooler                 | [16, 128, 768]       | [16, 768]      | 590,592    |
| │    │    └─(dense)Linear                    | [16, 768]            | [16, 768]      | 590,592    |
| │    │    └─(activation)Tanh                 | [16, 768]            | [16, 768]      | --         |
+----------------------------------------------+----------------------+----------------+------------+