+--------------------------+-------------------------+----------------+-----------+
| Layer                    | Input Shape             | Output Shape   | #Param    |
|--------------------------+-------------------------+----------------+-----------|
| AttentionEncoder         | [2000, 2000]            | [1, 768]       | 4,559,616 |
| ├─(relu)LeakyReLU        | [2000, 1024]            | [2000, 1024]   | --        |
| ├─(fc1)Linear            | [1, 1024]               | [1, 1024]      | 1,049,600 |
| ├─(fc2)Linear            | [1, 1024]               | [1, 768]       | 787,200   |
| ├─(Attention)GAT         | [2000, 300], [2, 2000]  | [2000, 1024]   | 2,722,816 |
| │    └─(dropout)Dropout  | [2000, 1024]            | [2000, 1024]   | --        |
| │    └─(act)ReLU         | [2000, 1024]            | [2000, 1024]   | --        |
| │    └─(convs)ModuleList | --                      | --             | 2,719,744 |
| │    │    └─(0)GATv2Conv | [2000, 300], [2, 2000]  | [2000, 1024]   | 618,496   |
| │    │    └─(1)GATv2Conv | [2000, 1024], [2, 2000] | [2000, 1024]   | 2,101,248 |
| │    └─(norms)ModuleList | --                      | --             | 3,072     |
| │    │    └─(0)GraphNorm | [2000, 1024]            | [2000, 1024]   | 3,072     |
| │    │    └─(1)Identity  | --                      | --             | --        |
+--------------------------+-------------------------+----------------+-----------+