+----------------------------------------------+----------------------+----------------+------------+
| Layer                                        | Input Shape          | Output Shape   | #Param     |
|----------------------------------------------+----------------------+----------------+------------|
| TextEncoder                                  | [32, 128], [32, 128] | [32, 768]      | 83,450,880 |
| ├─(bert)RobertaModel                         | [32, 128]            |                | 83,450,880 |
| │    └─(embeddings)RobertaEmbeddings         |                      | [32, 128, 768] | 40,333,056 |
| │    │    └─(word_embeddings)Embedding       | [32, 128]            | [32, 128, 768] | 39,936,000 |
| │    │    └─(position_embeddings)Embedding   | [32, 128]            | [32, 128, 768] | 394,752    |
| │    │    └─(token_type_embeddings)Embedding | [32, 128]            | [32, 128, 768] | 768        |
| │    │    └─(LayerNorm)LayerNorm             | [32, 128, 768]       | [32, 128, 768] | 1,536      |
| │    │    └─(dropout)Dropout                 | [32, 128, 768]       | [32, 128, 768] | --         |
| │    └─(encoder)RobertaEncoder               | [32, 128, 768]       |                | 42,527,232 |
| │    │    └─(layer)ModuleList                | --                   | --             | 42,527,232 |
| │    └─(pooler)RobertaPooler                 | [32, 128, 768]       | [32, 768]      | 590,592    |
| │    │    └─(dense)Linear                    | [32, 768]            | [32, 768]      | 590,592    |
| │    │    └─(activation)Tanh                 | [32, 768]            | [32, 768]      | --         |
+----------------------------------------------+----------------------+----------------+------------+