+-------------------------+------------------------+----------------+------------+
| Layer                   | Input Shape            | Output Shape   | #Param     |
|-------------------------+------------------------+----------------+------------|
| Transformer             | [2000, 2000]           | [1, 768]       | 23,849,472 |
| ├─(relu)LeakyReLU       | [2000, 768]            | [2000, 768]    | --         |
| ├─(fc1)Linear           | [2000, 300]            | [2000, 768]    | 231,168    |
| ├─(conv)TransformerConv | [2000, 768], [2, 2000] | [2000, 6144]   | 18,898,944 |
| ├─(fc2)Linear           | [1, 6144]              | [1, 768]       | 4,719,360  |
+-------------------------+------------------------+----------------+------------+