+--------------------+-------------------------+----------------+------------+
| Layer              | Input Shape             | Output Shape   | #Param     |
|--------------------+-------------------------+----------------+------------|
| GATPerso           | [2000, 2000]            | [1, 768]       | 14,332,416 |
| ├─(relu)LeakyReLU  | [2000, 6144]            | [2000, 6144]   | --         |
| ├─(fc1)Linear      | [1, 768]                | [1, 768]       | 590,592    |
| ├─(conv1)GATv2Conv | [2000, 300], [2, 2000]  | [2000, 6144]   | 3,710,976  |
| ├─(conv2)GATv2Conv | [2000, 6144], [2, 2000] | [2000, 768]    | 9,440,256  |
| ├─(fc2)Linear      | [1, 768]                | [1, 768]       | 590,592    |
+--------------------+-------------------------+----------------+------------+