+-----------------------+------------------------+----------------+----------+
| Layer                 | Input Shape            | Output Shape   | #Param   |
|-----------------------+------------------------+----------------+----------|
| GCN                   | [2000, 2000]           | [1, 768]       | 593,904  |
| ├─(relu)ReLU          | --                     | --             | --       |
| ├─(ln)LayerNorm       | --                     | --             | 1,536    |
| ├─(conv1)GCNConv      | [2000, 300], [2, 2000] | [2000, 300]    | 90,300   |
| ├─(conv2)GCNConv      | [2000, 300], [2, 2000] | [2000, 300]    | 90,300   |
| ├─(conv3)GCNConv      | [2000, 300], [2, 2000] | [2000, 300]    | 90,300   |
| ├─(mol_hidden1)Linear | [1, 300]               | [1, 300]       | 90,300   |
| ├─(mol_hidden2)Linear | [1, 300]               | [1, 768]       | 231,168  |
+-----------------------+------------------------+----------------+----------+