+----------------------------------------------+----------------------+----------------+-------------+
| Layer                                        | Input Shape          | Output Shape   | #Param      |
|----------------------------------------------+----------------------+----------------+-------------|
| TextEncoder                                  | [64, 128], [64, 128] | [64, 768]      | 125,978,112 |
| ├─(bert)RobertaModel                         | [64, 128]            |                | 125,978,112 |
| │    └─(embeddings)RobertaEmbeddings         |                      | [64, 128, 768] | 40,333,056  |
| │    │    └─(word_embeddings)Embedding       | [64, 128]            | [64, 128, 768] | 39,936,000  |
| │    │    └─(position_embeddings)Embedding   | [64, 128]            | [64, 128, 768] | 394,752     |
| │    │    └─(token_type_embeddings)Embedding | [64, 128]            | [64, 128, 768] | 768         |
| │    │    └─(LayerNorm)LayerNorm             | [64, 128, 768]       | [64, 128, 768] | 1,536       |
| │    │    └─(dropout)Dropout                 | [64, 128, 768]       | [64, 128, 768] | --          |
| │    └─(encoder)RobertaEncoder               | [64, 128, 768]       |                | 85,054,464  |
| │    │    └─(layer)ModuleList                | --                   | --             | 85,054,464  |
| │    └─(pooler)RobertaPooler                 | [64, 128, 768]       | [64, 768]      | 590,592     |
| │    │    └─(dense)Linear                    | [64, 768]            | [64, 768]      | 590,592     |
| │    │    └─(activation)Tanh                 | [64, 768]            | [64, 768]      | --          |
+----------------------------------------------+----------------------+----------------+-------------+