+----------------------------------------------+----------------------+----------------+-------------+
| Layer                                        | Input Shape          | Output Shape   | #Param      |
|----------------------------------------------+----------------------+----------------+-------------|
| TextEncoder                                  | [16, 128], [16, 128] | [16, 768]      | 108,310,272 |
| ├─(bert)BertModel                            | [16, 128]            |                | 108,310,272 |
| │    └─(embeddings)BertEmbeddings            |                      | [16, 128, 768] | 22,665,216  |
| │    │    └─(word_embeddings)Embedding       | [16, 128]            | [16, 128, 768] | 22,268,928  |
| │    │    └─(position_embeddings)Embedding   | [1, 128]             | [1, 128, 768]  | 393,216     |
| │    │    └─(token_type_embeddings)Embedding | [16, 128]            | [16, 128, 768] | 1,536       |
| │    │    └─(LayerNorm)LayerNorm             | [16, 128, 768]       | [16, 128, 768] | 1,536       |
| │    │    └─(dropout)Dropout                 | [16, 128, 768]       | [16, 128, 768] | --          |
| │    └─(encoder)BertEncoder                  | [16, 128, 768]       |                | 85,054,464  |
| │    │    └─(layer)ModuleList                | --                   | --             | 85,054,464  |
| │    └─(pooler)BertPooler                    | [16, 128, 768]       | [16, 768]      | 590,592     |
| │    │    └─(dense)Linear                    | [16, 768]            | [16, 768]      | 590,592     |
| │    │    └─(activation)Tanh                 | [16, 768]            | [16, 768]      | --          |
+----------------------------------------------+----------------------+----------------+-------------+