+-------------------------------------------------+---------------------------------+----------------+------------+
| Layer                                           | Input Shape                     | Output Shape   | #Param     |
|-------------------------------------------------+---------------------------------+----------------+------------|
| TextEncoder                                     | [16, 128], [16, 128]            | [16, 768]      | 11,683,584 |
| ├─(bert)AlbertModel                             | [16, 128]                       |                | 11,683,584 |
| │    └─(embeddings)AlbertEmbeddings             | [16, 128]                       | [16, 128, 128] | 3,906,048  |
| │    │    └─(word_embeddings)Embedding          | [16, 128]                       | [16, 128, 128] | 3,840,000  |
| │    │    └─(position_embeddings)Embedding      | [1, 128]                        | [1, 128, 128]  | 65,536     |
| │    │    └─(token_type_embeddings)Embedding    | [16, 128]                       | [16, 128, 128] | 256        |
| │    │    └─(LayerNorm)LayerNorm                | [16, 128, 128]                  | [16, 128, 128] | 256        |
| │    │    └─(dropout)Dropout                    | [16, 128, 128]                  | [16, 128, 128] | --         |
| │    └─(encoder)AlbertTransformer               | [16, 128, 128], [16, 1, 1, 128] |                | 7,186,944  |
| │    │    └─(embedding_hidden_mapping_in)Linear | [16, 128, 128]                  | [16, 128, 768] | 99,072     |
| │    │    └─(albert_layer_groups)ModuleList     | --                              | --             | 7,087,872  |
| │    └─(pooler)Linear                           | [16, 768]                       | [16, 768]      | 590,592    |
| │    └─(pooler_activation)Tanh                  | [16, 768]                       | [16, 768]      | --         |
+-------------------------------------------------+---------------------------------+----------------+------------+