+----------------------------------------------+----------------------+----------------+------------+
| Layer                                        | Input Shape          | Output Shape   | #Param     |
|----------------------------------------------+----------------------+----------------+------------|
| TextEncoder                                  | [16, 128], [16, 128] | [16, 312]      | 13,874,136 |
| ├─(bert)BertModel                            | [16, 128]            |                | 13,874,136 |
| │    └─(embeddings)BertEmbeddings            |                      | [16, 128, 312] | 9,207,744  |
| │    │    └─(word_embeddings)Embedding       | [16, 128]            | [16, 128, 312] | 9,046,752  |
| │    │    └─(position_embeddings)Embedding   | [1, 128]             | [1, 128, 312]  | 159,744    |
| │    │    └─(token_type_embeddings)Embedding | [16, 128]            | [16, 128, 312] | 624        |
| │    │    └─(LayerNorm)LayerNorm             | [16, 128, 312]       | [16, 128, 312] | 624        |
| │    │    └─(dropout)Dropout                 | [16, 128, 312]       | [16, 128, 312] | --         |
| │    └─(encoder)BertEncoder                  | [16, 128, 312]       |                | 4,568,736  |
| │    │    └─(layer)ModuleList                | --                   | --             | 4,568,736  |
| │    └─(pooler)BertPooler                    | [16, 128, 312]       | [16, 312]      | 97,656     |
| │    │    └─(dense)Linear                    | [16, 312]            | [16, 312]      | 97,656     |
| │    │    └─(activation)Tanh                 | [16, 312]            | [16, 312]      | --         |
+----------------------------------------------+----------------------+----------------+------------+