+--------------------------------------------+----------------------+----------------+------------+
| Layer                                      | Input Shape          | Output Shape   | #Param     |
|--------------------------------------------+----------------------+----------------+------------|
| TextEncoder                                | [16, 128], [16, 128] | [16, 768]      | 66,362,880 |
| ├─(bert)DistilBertModel                    | [16, 128]            |                | 66,362,880 |
| │    └─(embeddings)Embeddings              | [16, 128]            | [16, 128, 768] | 23,835,648 |
| │    │    └─(word_embeddings)Embedding     | [16, 128]            | [16, 128, 768] | 23,440,896 |
| │    │    └─(position_embeddings)Embedding | [1, 128]             | [1, 128, 768]  | 393,216    |
| │    │    └─(LayerNorm)LayerNorm           | [16, 128, 768]       | [16, 128, 768] | 1,536      |
| │    │    └─(dropout)Dropout               | [16, 128, 768]       | [16, 128, 768] | --         |
| │    └─(transformer)Transformer            |                      |                | 42,527,232 |
| │    │    └─(layer)ModuleList              | --                   | --             | 42,527,232 |
+--------------------------------------------+----------------------+----------------+------------+