+--------------------+-------------------------+----------------+------------+
| Layer              | Input Shape             | Output Shape   | #Param     |
|--------------------+-------------------------+----------------+------------|
| GATPerso           | [2000, 2000]            | [1, 300]       | 12,223,788 |
| ├─(relu)LeakyReLU  | [2000, 4096]            | [2000, 4096]   | --         |
| ├─(fc1)Linear      | [1, 1024]               | [1, 1024]      | 1,049,600  |
| ├─(conv1)GATv2Conv | [2000, 300], [2, 2000]  | [2000, 4096]   | 2,473,984  |
| ├─(conv2)GATv2Conv | [2000, 4096], [2, 2000] | [2000, 1024]   | 8,392,704  |
| ├─(fc2)Linear      | [1, 1024]               | [1, 300]       | 307,500    |
+--------------------+-------------------------+----------------+------------+