+----------------------------------------+---------------------------+----------------+-------------+
| Layer                                  | Input Shape               | Output Shape   | #Param      |
|----------------------------------------+---------------------------+----------------+-------------|
| TextEncoder                            | [16, 128], [16, 128]      | [16, 768]      | 183,831,552 |
| ├─(bert)DebertaV2Model                 | [16, 128]                 |                | 183,831,552 |
| │    └─(embeddings)DebertaV2Embeddings |                           | [16, 128, 768] | 98,382,336  |
| │    │    └─(word_embeddings)Embedding | [16, 128]                 | [16, 128, 768] | 98,380,800  |
| │    │    └─(LayerNorm)LayerNorm       | [16, 128, 768]            | [16, 128, 768] | 1,536       |
| │    │    └─(dropout)StableDropout     | [16, 128, 768]            | [16, 128, 768] | --          |
| │    └─(encoder)DebertaV2Encoder       | [16, 128, 768], [16, 128] |                | 85,449,216  |
| │    │    └─(layer)ModuleList          | --                        | --             | 85,054,464  |
| │    │    └─(rel_embeddings)Embedding  | --                        | --             | 393,216     |
| │    │    └─(LayerNorm)LayerNorm       | [512, 768]                | [512, 768]     | 1,536       |
+----------------------------------------+---------------------------+----------------+-------------+